…
Flatten layer to flatten the feature maps into a one-dimensional vector.
Dropout layer with a dropout rate of 0.5 to prevent overfitting.
Dense layer with 512 neurons and ReLU activation function.
Another Dense layer with 1 neuron and sigmoid activation function.



Saurabh Lokhande
model.summary()
Sure! Here's the summary of the model:

markdown
Copy code
Model: "sequential"
_________________________________________________________________
Layer (type)                 Output Shape              Param #   
=================================================================
conv2d (Conv2D)              (None, 148, 148, 32)      896       
_________________________________________________________________
max_pooling2d (MaxPooling2D) (None, 74, 74, 32)        0         
_________________________________________________________________
conv2d_1 (Conv2D)            (None, 72, 72, 64)        18496     
_________________________________________________________________
max_pooling2d_1 (MaxPooling2 (None, 36, 36, 64)        0         
_________________________________________________________________
conv2d_2 (Conv2D)            (None, 34, 34, 128)       73856     
_________________________________________________________________
max_pooling2d_2 (MaxPooling2 (None, 17, 17, 128)       0         
_________________________________________________________________
conv2d_3 (Conv2D)            (None, 15, 15, 128)       147584    
_________________________________________________________________
max_pooling2d_3 (MaxPooling2 (None, 7, 7, 128)         0         
_________________________________________________________________
flatten (Flatten)            (None, 6272)              0         
_________________________________________________________________
dropout (Dropout)            (None, 6272)              0         
_________________________________________________________________
dense (Dense)                (None, 512)               3211776   
_________________________________________________________________
dense_1 (Dense)              (None, 1)                 513       
=================================================================
Total params: 3,463,121
Trainable params: 3,463,121
Non-trainable params: 0
_________________________________________________________________



Saurabh Lokhande
model.compile(loss="binary_crossentropy",optimizer=optimizers.RMSprop(lr=1e-4),metrics=['acc'])
The model has been compiled using the binary cross-entrop
…
